MBIDCE_code/snapshots/Epoch99.pth (torch_old, 32126 bytes, 38 tensors)

e_conv1.0.weight f4 [8, 3, 3, 3]
00000000: f882 0080 c21c 0000 a202 0100 525e 0080
00000010: 94f2 0080 a362 0000 83fd 0000 8680 0080
00000020: 1986 0000 2505 0100 5011 0180 dacb 0080
00000030: ce31 0100 6267 0080 629b 0080 d3c5 0080
00000040: 031b 0100 66bb 0000 b6cf 0000 ea01 0180
00000050: c527 0100 57b6 0100 84e1 0000 4724 0000
00000060: 9b5b 0180 5919 0100 ad12 0080 0cec 183e
00000070: d9e4 063e 2657 de3d 0b03 893c db6d 223d
00000080: e498 963c 73c0 cebd 6b36 09bd d469 a2bd
00000090: 810e 013e 8a5e dc3d cd9a b43d c408 b9bb
000000a0: 07b8 aabb cae1 453c 5c98 0cbe 1f35 8dbd
000000b0: 87eb dcbd 1fda f33d b560 a53d 5ccd 503d
000000c0: bcb5 23bc b22f 0dbc 59ed acbb 2d87 c4bd
000000d0: 4d86 c7bc 5ac5 56bd aa22 a9bd 248f f9bc
000000e0: 2ddd 09be 8673 c8bc ee61 133d ac64 c8bc
000000f0: e07f d7bd de6d f7bc b82d 91bd 9b65 5bbd
00000100: 8c0a 23bc 3874 abbd d4e7 82bb 6c31 613d
00000110: 473f 3a3c 8697 72bd fc50 e3bb c506 0ebd
00000120: 7c9d f2bc cb3b 043c 0cbe 8abd 78ab 77bc
00000130: 1259 0b3d 276c 41bc 9d3c 95bd b362 d1bc
00000140: 9b2e 35bd fb55 c8bd 7d69 78bd 2fc8 763c
00000150: 15a7 3dbd ced6 37bd 772f 293d 007b cfbc
00000160: 53db 8a3c d5fd 1b3e ecfc e1bd 985b 94bd
00000170: 16f2 2e3c dd7c 71bd e5eb 6bbd 6ee5 143d
00000180: 0668 00bd 674d 4a3c 316c 1f3e b432 07bd
00000190: 2829 1bbd 3a44 c83c 1f6c c8bc 898e 8ebd
000001a0: 90a4 9f3b 2a57 d6bb b64c 90bb 10eb fd3d
000001b0: 1112 a83c 6af9 22bb af43 a4bd cd96 383d
000001c0: fbd9 033d b4f2 123b 9fc9 4b3d f45e 893d
000001d0: a843 06bc b3ae 103c 59c1 cabb 4ff9 ecbd
000001e0: aeb5 323d 1a05 1d3d 9747 45bd 05cd 5d3d
000001f0: ca5f 013d 365c 33bc 674d 443d 8cc1 a73c
00000200: 10dd 07bd bce6 793d 3730 c53c 59fd 98bc
00000210: bce9 673d b3f1 063d bd4b 163d b12b 7b3d
00000220: 73e6 923c 9d75 ea3d 7d3e 563d 65dc 40ba
00000230: 83ed 723d c844 f53d d735 353d e4b3 a43d
00000240: da78 c43d d2ef 293d c04e ff3d a714 793d
00000250: f45d f03b dece a03d 914c 063e 17fd 313d
00000260: 9283 cb3d d306 103d 4e09 2fbc 8928 843d
00000270: 6e89 1e3d 4b4f 1ebb ac1d 273d 64bf e73d
00000280: 11c0 143c 5fbd 863d 903e 0080 192f 0080
00000290: 99a4 0080 e60d 0080 5b2e 0000 4681 0080
000002a0: 0576 0080 223c 0080 9daa 0080 b0ac 0000
000002b0: 58b4 0000 ad01 0080 f292 0000 b377 0000
000002c0: 585a 0000 5250 0000 1799 0000 0939 0080
000002d0: 3d83 0080 9d5b 0080 e432 0080 ac89 0080
000002e0: 3643 0080 dc7a 0080 cc61 0080 09af 0080
000002f0: 3090 0000 8dfe 0000 5780 0080 5ce7 0000
00000300: 37bb 0000 01bc 0080 866b 0080 07ef 0000
00000310: 84d5 0000 9022 0000 6906 0000 3eba 0080
00000320: 50b6 0000 b75f 0000 af0e 0100 8017 0080
00000330: 3dd7 0080 3ec7 0000 9790 0080 9953 0100
00000340: 5d15 0100 63db 0000 0e65 0080 e747 0000
00000350: 6f3f 0000 fbe7 0080 e525 0080 43c6 0080
-4.6983e-41 1.0316e-41 9.278e-41 -3.3836e-41 -8.702e-41 3.5384e-41 9.0943e-41 -4.6106e-41
4.8105e-41 9.3681e-41 -9.8046e-41 -7.3128e-41 1.09702e-40 -3.7087e-41 -5.5741e-41 -7.0966e-41
1.01525e-40 6.7226e-41 7.4513e-41 -9.2522e-41 1.06102e-40 1.57247e-40 8.09e-41 1.3014e-41
-1.24697e-40 1.00929e-40 -6.7e-42 0.14933795 0.13173236 0.10856466 0.016725084 0.039655548
0.01838345 -0.100953005 -0.033499163 -0.07930341 0.12603189 0.107602194 0.088185884 -0.005646797
-0.005209926 0.012077758 -0.13729995 -0.06894898 -0.10787111 0.11906838 0.08075086 0.050977096
-0.009992059 -0.0086173285 -0.0052773175 -0.09596095 -0.024356032 -0.052434303 -0.08258565 -0.030463763
-0.13463278 -0.024469148 0.035982065 -0.024462067 -0.10522437 -0.030203756 -0.07088798 -0.053563695
-0.009951245 -0.08371776 -0.003994921 0.054978773 0.011367626 -0.059226535 -0.0069371443 -0.034674425
-0.02961611 0.008070896 -0.0677453 -0.015116565 0.03402049 -0.011805571 -0.07286952 -0.025559759
-0.0442339 -0.097820245 -0.060647476 0.015062376 -0.04630192 -0.044882588 0.04130503 -0.025327206
0.016950285 0.15233548 -0.11034569 -0.072440326 0.010677835 -0.05895697 -0.057598013 0.036351614
-0.031349204 0.012347556 0.15568615 -0.03300734 -0.037881047 0.024446595 -0.024465619 -0.0696078
0.0048719123 -0.0065411525 -0.004403676 0.1239835 0.020516427 -0.00248679 -0.08020722 0.04506569
0.032190304 0.0022422494 0.049752828 0.06707564 -0.008194841 0.008830714 -0.0061875996 -0.11570989
0.043630295 0.038334943 -0.048163977 0.0541506 0.031585492 -0.010947278 0.04792538 0.020478033
-0.033169806 0.06101106 0.024070842 -0.018675493 0.05661939 0.032945346 0.036693323 0.061320964
0.017932152 0.11448214 0.052305687 -0.000735706 0.05930854 0.119760096 0.0442408 0.08042124
0.09593363 0.041488476 0.12466192 0.06081071 0.007335419 0.07851957 0.13115145 0.043454256
0.099372044 0.035162758 -0.010683371 0.06453044 0.038705282 -0.002415615 0.04079978 0.11315802
0.009078995 0.065790884 -2.2443e-41 -1.6895e-41 -5.9047e-41 -4.986e-42 1.6629e-41 -4.6375e-41
-4.2337e-41 -2.1572e-41 -6.1205e-41 6.1949e-41 6.4695e-41 -6.01e-43 5.2714e-41 4.294e-41
3.2409e-41 2.8813e-41 5.4918e-41 -2.046e-41 -4.708e-41 -3.2865e-41 -1.8256e-41 -4.9387e-41
-2.4111e-41 -4.4074e-41 -3.5083e-41 -6.2791e-41 5.1725e-41 9.1316e-41 -4.604e-41 8.2996e-41
6.716e-41 -6.7443e-41 -3.8572e-41 8.5747e-41 7.6595e-41 1.2399e-41 2.3e-42 -6.6811e-41
6.5401e-41 3.4336e-41 9.7103e-41 -8.43e-42 -7.7213e-41 7.1475e-41 -5.1869e-41 1.21825e-40
9.9499e-41 7.8701e-41 -3.6252e-41 2.5794e-41 2.2756e-41 -8.3219e-41 -1.3594e-41 -7.1123e-41

e_conv1.0.bias f4 [8]
00000000: 0c12 1b00 26e2 e03d 980b 183e b5c8 0b3e
00000010: 572d 933e 8f41 19bd d4a7 d49a d379 1380
2.486032e-39 0.109806344 0.14848173 0.13650782 0.2874553 -0.037416037 -8.7952286e-23 -1.788577e-39

e_conv2.0.weight f4 [8, 8, 3, 3]
00000000: dbcd 0080 53c3 0080 e62c 0100 ef19 0180
00000010: 8233 0080 06b8 0000 4719 0080 6b1f 0000
00000020: 2eea 0100 9f72 0c3e 43d4 b03c c8fd 523d
00000030: 403f bfbb d8a4 5abd dc6a 303d 1182 afbd
00000040: 2690 82bd 7ebb bf3d d25f edbd 9e71 8d3d
00000050: 0fc1 1d3e afda 97bd 3ff7 fb3d cd22 5f3e
00000060: cc40 36be 7e12 083d a142 463e add8 eebd
00000070: 71b9 833d d859 863d 08c2 e5bb 2bb1 093e
00000080: 4f5f 01bc a175 5d3d b9ab ef3d 49b3 1abe
00000090: bf4c 183e 3801 893d bca2 523e c61a c73d
000000a0: e2bf 503c 53c3 013e 0beb 2a3e d6db 053d
000000b0: 1a03 fd3d 59ca 963c 5592 76bc 51b7 cf3b
000000c0: 987a 29bb 9a70 16bd badf cebc 25e4 32bb
000000d0: 26e2 afbd f689 16be d57c 0080 a33f 0080
000000e0: 9722 0000 4446 0080 d51e 0000 f0e3 0000
000000f0: c211 0000 f891 0000 3251 0080 e0a4 0080
00000100: 4adc 0180 5647 0100 f5fd 0000 71c3 0080
00000110: fefe 0080 5071 0000 56d6 0080 e072 0000
00000120: c6ea 0080 91f7 0080 3e46 0100 7e2f 0100
00000130: 6e15 0180 1913 0000 ea57 0100 9b7a 0100
00000140: 1431 0180 b063 0bbd fe8a f73b 943b cbbc
00000150: 192e 583d 8093 8b3d 3163 333d 056d b83d
00000160: 2391 cf3d cc19 d23d c3e9 a43d 8fcd 3b3c
00000170: fa69 263c 7121 9d3d 1cb4 edb9 41e4 d7bc
00000180: 6e1b 243e 3972 703d e5e1 97b9 a3e6 663e
00000190: 45ad 2c3d 3ed1 143d bbac 293e 9a0d ac3c
000001a0: 6ab2 b7bc 01e8 143e 92bc 29bd 9a4c 45be
000001b0: 5ece ce3c 96a6 423d db3d d13d 2b28 9bbb
000001c0: 1f61 fe3c 875b 873d 1109 4cbd 476c 863c
000001d0: 33e9 123d ba29 25bd abf1 91bc c8cc 6fbd
000001e0: 5114 89bd efec 5dbc 6049 35bc b4c1 17be
000001f0: 58ea 76bd b9f7 92bd f731 0000 6621 0080
00000200: c657 0080 f0c1 0000 ef9f 0080 a19b 0080
00000210: bd8c 0080 917c 0000 8918 0000 7a62 0000
00000220: 3ea1 0000 fe34 0080 22ab 0000 36b3 0000
00000230: 26eb 0000 fb0f 0080 b675 0000 ce06 0100
00000240: 2baf 0180 b9fc 0080 bfca 0080 6f7e 0000
00000250: 917d 0080 1c9e 0180 d94e 0080 de29 0180
00000260: 20de 0000 3687 bbbd 9223 8abc 9c36 7fbd
00000270: 930e 253d aae9 8e3d c9d1 d33c e088 953d
00000280: 709d b33d 4b85 463d 9cd8 8b3d ceef 84bb
00000290: 31d6 10bd 1722 71b9 d951 a3bd 2882 18be
000002a0: 9b51 b43c 108e c6bd d58e 37be 4d7c 923e
000002b0: b9ad 713d 2b87 c03d 1aa1 113e 83cf debc
000002c0: cf6b 8b3c 275b dc3d 2ebd 67bd a1e8 91bd
000002d0: c880 153c 394f 693d b32f 163d 6c4b 3a3c
000002e0: 175d 603d 59f8 023d dca6 d9bc 85b4 123d
000002f0: 2d53 a33c a7f6 febc 26f1 313c 872b 0abd
00000300: b978 b5bb d489 ff3c 4abf 00bc 2795 48bd
00000310: ffb3 9b3c e379 d13c ad39 0000 a3b9 0080
00000320: 65b9 0080 e1b4 0080 254c 0000 9372 0000
00000330: 08b5 0080 fc38 0000 b739 0000 fff2 0080
00000340: ce66 0180 fa5f 0000 ae54 0000 d6e4 0000
00000350: 07e3 0080 89cf 0000 eceb 0080 86dc 0000
00000360: dd88 0180 c436 0180 ca0d 0200 f572 0100
00000370: 3f8e 0080 ef8f 0000 19b9 0100 1af8 0080
00000380: d115 0080 7084 9d3b 53a8 5ebb c439 46bc
00000390: b7e6 623a 0985 a6ba ac95 12bc ea82 cfbb
000003a0: 9953 aebb b4ca 5abc d1bd 8c3a eda5 803c
000003b0: a885 553c 62fd 813b 8846 953c 65ff 4f3c
000003c0: 86cd 0a3a a9d8 273c 0394 62bb 8bdf 0abc
000003d0: 3e9e 803b 01a8 e43b 9e41 53ba 79a4 cc3b
000003e0: 8a62 0c3c cae9 123c a5ba 8e3c 8021 b73c
000003f0: 05f9 c33a 4261 723b 68c9 1f3b 71fb 0a3b
-7.3847e-41 -7.0069e-41 1.07942e-40 -1.01139e-40 -1.8478e-41 6.6015e-41 -9.068e-42 1.127e-41
1.75843e-40 0.137156 0.02158559 0.051511556 -0.0058363974 -0.053379864 0.04307066 -0.0856973
-0.063751504 0.09361933 -0.11590542 0.069064364 0.15405677 -0.074147575 0.12303018 0.21790619
-0.17798156 0.03322076 0.19361354 -0.116624214 0.064318545 0.06560105 -0.0070116557 0.1344649
-0.0078962585 0.054067258 0.11702675 -0.15107454 0.14873026 0.066896856 0.2056989 0.097219035
0.012741061 0.12672167 0.16691224 0.032680355 0.12354107 0.018407034 -0.015049537 0.0063389917
-0.0025860425 -0.03672848 -0.025253166 -0.002729663 -0.08588056 -0.14701065 -4.4781e-41 -2.2829e-41
1.2408e-41 -2.5207e-41 1.106e-41 8.1769e-41 6.37e-42 5.2364e-41 -2.9127e-41 -5.9146e-41
-1.7086e-40 1.17426e-40 9.1103e-41 -7.0111e-41 -9.1474e-41 4.0649e-41 -7.6889e-41 4.121e-41
-8.4221e-41 -8.881e-41 1.17034e-40 1.08872e-40 -9.9523e-41 6.851e-42 1.23373e-40 1.35818e-40
-1.09441e-40 -0.034030616 0.007554411 -0.024808683 0.052778337 0.06815243 0.04379577 0.09005169
0.101351045 0.102588266 0.08052399 0.011462583 0.010157103 0.07672394 -0.00045338355 -0.026353957
0.16026089 0.05870268 -0.0002896927 0.22548918 0.04215743 0.03633236 0.16569798 0.02100258
-0.022423942 0.14541627 -0.0414396 -0.19267502 0.025244888 0.04752215 0.10216876 -0.004735013
0.03105217 0.06609254 -0.049813334 0.016409053 0.035866927 -0.040322997 -0.017815432 -0.058544904
-0.06693328 -0.013545259 -0.011064857 -0.14819986 -0.06028208 -0.071761556 1.7924e-41 -1.1981e-41
-3.1487e-41 6.9572e-41 -5.7373e-41 -5.5829e-41 -5.0487e-41 4.4686e-41 8.802e-42 3.5327e-41
5.7843e-41 -1.901e-41 6.1391e-41 6.4289e-41 8.4355e-41 -5.733e-42 4.2227e-41 9.4277e-41
-1.54674e-40 -9.066e-41 -7.2732e-41 4.5356e-41 -4.5045e-41 -1.48554e-40 -2.8285e-41 -1.06855e-40
7.9683e-41 -0.09156649 -0.016862664 -0.06230794 0.040297102 0.06978162 0.02585687 0.073014975
0.08770263 0.04846696 0.06828424 -0.0040569073 -0.03536052 -0.0002299625 -0.079745956 -0.148934
0.022011569 -0.09695065 -0.1792558 0.2861046 0.059003565 0.09400781 0.14221612 -0.027198559
0.01701918 0.107595734 -0.0565769 -0.071244486 0.009124942 0.05696032 0.036666583 0.011370521
0.054776277 0.031975124 -0.026568823 0.035816688 0.019937122 -0.031123472 0.010860717 -0.033732917
-0.005538073 0.031193651 -0.007858107 -0.048970368 0.019006727 0.025570815 2.069e-41 -6.6594e-41
-6.6507e-41 -6.4887e-41 2.7316e-41 4.1101e-41 -6.4942e-41 2.0442e-41 2.0704e-41 -8.717e-41
-1.28715e-40 3.443e-41 3.0377e-41 8.2091e-41 -8.1442e-41 7.445e-41 -8.4633e-41 7.9109e-41
-1.40933e-40 -1.11482e-40 1.88618e-40 1.33074e-40 -5.1028e-41 5.1634e-41 1.58236e-40 -8.9002e-41
-7.826e-42 0.0048070475 -0.003397484 -0.012098733 0.0008655595 -0.0012704442 -0.008946817 -0.006332745
-0.005320024 -0.013353992 0.0010737722 0.01570412 0.013032354 0.003966973 0.018222108 0.012695168
0.00052949076 0.010244527 -0.0034573085 -0.008476148 0.003925114 0.0069780354 -0.0008058789 0.0062451926
0.008568415 0.0089668725 0.017422983 0.022354841 0.0014951533 0.003698424 0.0024381522 0.0021207

e_conv2.0.bias f4 [8]
00000000: 9992 623e 9a1e 323e 4be3 e23c 3114 043c
00000010: 9653 043b b22e ef3d a132 c73d 8922 0795
0.22126235 0.17394486 0.027696272 0.008061455 0.0020191423 0.11678828 0.097264536 -2.7290276e-26

e_conv3.0.weight f4 [8, 8, 3, 3]
00000000: 6a5d e13d 6339 fa3d 3eba 233e 240f 32bd
00000010: b5af 6abd ddb6 693d fccd 8e3d e4ce 743d
00000020: 7506 663e 0a64 a23e 6563 c53d a190 933e
00000030: edda 15bc d5fa 52be 4198 bd3d 654a 033e
00000040: 7809 6f3c f21b b33e f21c 4a3e 02f4 413b
00000050: 6d8e f03d 4427 733c 8391 10be 59d8 183d
00000060: a017 123e 6904 203d 56a0 5b3e adbf 863c
00000070: ef35 f33a 82f0 553b b2eb 0cbb 6999 5cbc
00000080: ed25 a5bb 2402 0dbc df9b 63bc f0c6 6ab9
00000090: 7d2e 7abb c8f4 3b3c 362c f83c 2971 ed3b
000000a0: 6c1c 063d 9af7 733d e914 c43c 51c7 533d
000000b0: 34e1 9c3d 969b 923e f1a9 433d 8b63 053e
000000c0: 3eb6 5c3d 215c 26be 3688 023d 043b 8a3e
000000d0: c47d 043e 118e bd3e 9f45 d03e b554 0e3e
000000e0: 0b10 503e cb9f ef3d fe69 11be efef 3e3d
000000f0: 2b4b 823e f552 ce3d 61ee b53e d2aa 0080
00000100: 2547 0080 5ca1 0180 6352 0180 58f5 0180
00000110: ad21 0100 83d8 0100 6999 0180 6405 0280
00000120: 39c4 643a 6090 f1b8 d97a 2c3a 19bb 9b3a
00000130: ea55 2c3a 2277 8a3a f777 88ba bec3 acba
00000140: 0d7d fcb9 3c84 b839 c0bd 723a d453 a9ba
00000150: 1e99 57b9 5010 af39 3441 d6ba 23bc 55bb
00000160: f088 18bb 38d2 56bb 9c0e 3ebb e583 daba
00000170: f852 aeba 620d 4dbb 2b32 20bb 24fc 35bb
00000180: 1325 69ba c716 203a 4385 f9b9 377b 803a
00000190: d83f 003b cf30 5cb8 9dbb 003b 6c55 ed3a
000001a0: 3065 06bb 71e0 b2b8 2656 f3ba 2cea c1bb
000001b0: 5b5f cc38 63bf adb9 cad7 ea39 907d 15b9
000001c0: 8f7e c1ba 5a0a 20bb aa45 86b6 fbac 47bb
000001d0: 30b3 babb 2161 01b9 d3d5 f9b9 7211 adba
000001e0: e282 4837 d85e 7ab9 21f3 0bbb d7d3 e7ba
000001f0: 3b0d 8cba 8cd2 0ebb 006c cc3a 4942 3a3b
00000200: a142 a5ba cdaa 523b 26d1 813b 4bf3 98ba
00000210: 9c6f d8ba 0301 98ba 8e54 9bbb 742f 0000
00000220: 7614 0000 160d 0180 d91f 0100 7ea0 0180
00000230: affd 0000 592a 0100 9909 0000 cafb 0000
00000240: e6db e5bd 4f03 18bd 8795 823b 4296 d6bd
00000250: 8e6e 62bd 4edc 5cbc 5d65 cebd ae6c 45bd
00000260: 9a83 ab3c 3a6d ce3d c772 143c 733e f13d
00000270: 76c8 ee3c 23f3 85bd 7f2d 093d 0cd5 2c3e
00000280: a3f5 873d fdf4 253e 83ec 1a3e 330e 5e3d
00000290: d9a7 393d caaf 953d 60dd dcba 1b66 da3c
000002a0: 0468 a43d dfdd 2b3d 8e29 9a3d 45aa 953b
000002b0: 9de9 923b d27a 333c 67f1 27bb 5e6d 8abb
000002c0: a272 b0ba 6ad9 acbb 3590 1dbc d9f2 22bc
000002d0: 56f6 2c3c a6bd 8d3b 5946 0cbb 488b 343c
000002e0: 757d dc3b d576 80ba 2cbc 0d3c aeb7 203b
000002f0: a04e 22bc a6e0 f23d 727a bc3d f139 8a3e
00000300: 5fb1 c43c 9681 98bc 2c53 0c3e b183 053e
00000310: 227c a83d 52be 5b3e 4945 133e 85b9 dd3d
00000320: 9b1d 8d3e 2c8f b03c 337c 28bd db3e e63d
00000330: 60b4 223e 35fd 973d b91e 4c3e fb15 0200
00000340: 7fce 0100 231d 0200 1f03 0200 a12d 0100
00000350: fd24 0180 266e 0100 2c18 0280 57a7 0180
00000360: c448 0000 396e 0000 f867 0000 5441 0080
00000370: b40d 0000 d781 0080 1134 0080 8f53 0000
00000380: 3791 0000 bce7 0080 92dd 0000 429f 0000
00000390: 503d 0080 e870 0080 91f2 0080 6cbc 0080
000003a0: 5408 0000 813f 0080 b0b0 0080 de83 0000
000003b0: e8c0 0000 2383 0080 7c96 0080 4cc5 0080
000003c0: 8151 0080 5284 0080 a67d 0000 ab9d 0080
000003d0: 082a 0180 cc5a 0080 ee48 0100 afbb 0100
000003e0: 3055 0080 0d52 0180 6382 0080 9ade 0100
000003f0: dea7 0100 2375 0100 5807 0080 cd50 0180
0.110041454 0.12217977 0.15989015 -0.04347147 -0.057296474 0.057059158 0.06972882 0.05976762
0.224634 0.3171695 0.096380986 0.2882128 -0.009146434 -0.20603497 0.09257556 0.12821348
0.01458966 0.34982258 0.19737604 0.0029594903 0.117459156 0.014840905 -0.14118008 0.0373157
0.14266825 0.039066706 0.21447882 0.01644882 0.0018555502 0.0032644575 -0.002150279 -0.01346431
-0.0050399215 -0.008606467 -0.013892143 -0.00022390089 -0.0038174682 0.011471935 0.030294519 0.0072461558
0.03274195 0.059562303 0.023935752 0.051703755 0.076601416 0.28634328 0.04776949 0.13026254
0.053884737 -0.16246082 0.031868182 0.2699815 0.12938601 0.3702245 0.40678117 0.138995
0.2031862 0.117004 -0.14200589 0.046615537 0.25447974 0.100744165 0.3553343 -6.1279e-41
-2.5522e-41 -1.4972e-40 -1.2139e-40 -1.79848e-40 1.03916e-40 1.69505e-40 -1.46869e-40 -1.85605e-40
0.0008726749 -0.000115186675 0.0006579585 0.0011881321 0.00065740815 0.0010564069 -0.0010411729 -0.0013180894
-0.00048158356 0.00035193737 0.00092598423 -0.001291866 -0.00020561038 0.00033390755 -0.0016346336 -0.003261336
-0.002327498 -0.0032779109 -0.0029000407 -0.0016671388 -0.0013299873 -0.0031288494 -0.0024443965 -0.0027768696
-0.0008893769 0.000610691 -0.0004759227 0.0009802346 0.0019569304 -5.2497544e-05 0.0019643076 0.0018107123
-0.002050709 -8.529507e-05 -0.0018565103 -0.005917808 9.7452394e-05 -0.00033139726 0.00044792733 -0.00014256523
-0.0014762449 -0.0024420233 -4.001621e-06 -0.0030468095 -0.0056976303 -0.00012338582 -0.00047652292 -0.0013204052
1.19514025e-05 -0.0002387719 -0.0021354633 -0.0017687035 -0.0010685095 -0.0021792976 0.0015596151 0.0028420857
-0.0012608358 0.0032145262 0.0039617 -0.0011669187 -0.0016512754 -0.0011596981 -0.0047403043 1.7023e-41
7.34e-42 -9.653e-41 1.0326e-40 -1.49409e-40 9.1005e-41 1.07027e-40 3.443e-42 9.0325e-41
-0.11223583 -0.03711253 0.00398511 -0.10477878 -0.055281214 -0.013480259 -0.10077927 -0.04819935
0.020936776 0.10079427 0.009060568 0.11779489 0.029148322 -0.06540515 0.033490654 0.16878146
0.06638648 0.16206737 0.15129285 0.05421276 0.045326088 0.0730892 -0.0016850643 0.026660016
0.08027652 0.04195964 0.07527457 0.004567417 0.0044834153 0.010954576 -0.0025626065 -0.0042244634
-0.0013461898 -0.005274941 -0.009616901 -0.009945595 0.010556778 0.0043255864 -0.0021404235 0.011019535
0.006728823 -0.000980104 0.008650821 0.0024523544 -0.009906441 0.118592545 0.09203042 0.2699733
0.024010358 -0.018616479 0.13703603 0.13038518 0.082268015 0.2145932 0.14381899 0.10826401
0.2756165 0.021552645 -0.04113407 0.112424575 0.1588912 0.07421342 0.19933595 1.91556e-40
1.65912e-40 1.94123e-40 1.8479e-40 1.08204e-40 -1.05104e-40 1.3135e-40 -1.92342e-40 -1.51866e-40
2.6103e-41 3.954e-41 3.7297e-41 -2.3435e-41 4.916e-42 -4.6578e-41 -1.8678e-41 2.9975e-41
5.2093e-41 -8.313e-41 7.9484e-41 5.7131e-41 -2.1995e-41 -4.0503e-41 -8.7016e-41 -6.7593e-41
2.988e-42 -2.2781e-41 -6.3384e-41 4.7305e-41 6.9202e-41 -4.7043e-41 -5.3984e-41 -7.0777e-41
-2.9238e-41 -4.7468e-41 4.5074e-41 -5.656e-41 -1.06913e-40 -3.2572e-41 1.17998e-40 1.59164e-40
-3.056e-41 -1.2127e-40 -4.6774e-41 1.7169e-40 1.52055e-40 1.33856e-40 -2.634e-42 -1.20821e-40

e_conv3.0.bias f4 [8]
00000000: 15ba 103e c975 293a d79b d0bd bc00 d193
00000010: 6e3d 123e e783 243a 8e1b 80bc e1ec 6dbd
0.14133485 0.000646439 -0.10185974 -5.275974e-27 0.14281246 0.00062757585 -0.01563814 -0.058087233

e_conv4.0.weight f4 [8, 8, 3, 3]
00000000: 4fbb 59bc afaf e73d 4780 603e 7d23 d1bd
00000010: 168f 363c cdd6 f03d 13a7 a2be e3f4 40be
00000020: dd39 b6bd 0384 a039 1bd5 c43a bb59 0b3b
00000030: 49db 8ab9 ab5c 503a 6af8 c33a 203b 19b9
00000040: 9a54 dbb9 5698 b9b9 eb60 443c 5edb f03d
00000050: 0f36 413e 11f5 32bd 6639 063d 29d7 c23d
00000060: d48e b2bd f634 04bd 0814 253c d8e2 0180
00000070: 6ebc 0000 81b6 0180 9331 0180 9e85 0080
00000080: e41e 0100 130f 0000 bc9d 0080 80bf 0080
00000090: 4d7e a9bc 8cee c33d 7d2a 0b3e 014d 90bd
000000a0: 2511 223d 8ffc 983d 8683 50be 2e98 02be
000000b0: c9ab bfbd 79a5 0080 114f 0100 cf03 5a8b
000000c0: 5007 0000 02bd 0080 f693 0880 3b86 0080
000000d0: 201a 0080 4763 0080 45de dfbb 28b3 db3c
000000e0: 98d0 903c f966 4fbc a647 b53c 3319 3a3c
000000f0: 12e9 0fbc 9ad4 9b3c d63f 853c 9df0 3f3c
00000100: 5a83 c83d 7cde 253e 17d0 22bd 95cf e63c
00000110: d190 ae3d 1289 0dbe e196 a9bd 2ebc 27bd
00000120: a54e 0080 bc4c 0080 2f92 0000 83bc 0080
00000130: 6b33 0000 5ea6 0080 3659 0080 167c 0080
00000140: 0ec7 0080 012c 0100 9ec4 0100 0a65 0100
00000150: 8e74 0080 6a6f 0180 f1b7 0080 90a0 0100
00000160: 0c32 0100 96fa 0080 4a85 0000 1d5b 0000
00000170: 0c1e 0080 d441 0000 1917 0000 0744 0080
00000180: a8ce 0080 798d 0080 964d 0000 fe1e 0080
00000190: 08c2 0180 e029 0080 79b1 0180 81b9 0180
000001a0: 7dc9 0000 ac0a 0100 ebcf 0080 ad1e 0000
000001b0: 6a20 0000 87b0 0080 6d5b 0080 567d 0080
000001c0: 70a7 0080 3754 0080 0da1 0080 987e 0000
000001d0: 5918 0000 6fdc 0000 9c16 0180 1728 0080
000001e0: 632d 0180 7597 0100 75f6 0000 bd49 0180
000001f0: 90fc 0000 b5f8 0100 5c00 0200 53d7 0100
00000200: c5be 0100 3bfa 0100 71ca 0100 fcf5 0100
00000210: 2804 0200 789e 0080 90a1 0100 44be 0080
00000220: 694d 0000 c0d3 0000 9f18 0080 8ab8 0000
00000230: c6a1 0000 0991 0000 5988 0000 74a7 0000
00000240: 1211 7fbe 5428 10be 7277 883d e07b 14be
00000250: 2b64 91bd e636 d33d e85e 943d 5a0a df3d
00000260: 802e 803e 0142 19bc 4ae4 17bc 3818 0ebc
00000270: 7cf5 f6bb 6983 02bc 6596 00bc 05a2 debb
00000280: 752b f5bb 616c f4bb 6b35 45be 13f4 d9bd
00000290: 1782 dd3d a515 02be b4ea abbd f70d ab3d
000002a0: a3f1 703d ecfc 733d 0073 453e 7379 0080
000002b0: ef71 0080 a32d 0200 5720 0100 48ee 0100
000002c0: 8ce7 0100 a28a 0080 3e5e 0100 a3fc 0080
000002d0: 2994 18be 5b23 9abd fc3a f83c 69e2 6abd
000002e0: 7fe7 8fba 7e9f a43d 796a ad3d 8c36 da3d
000002f0: d92c 2c3e 6f5a 9bb1 24e8 1eb1 fb2d bbb0
00000300: a387 4db1 e64a fab0 be3e a8b0 54c8 12b1
00000310: 93f5 cab0 75f3 91b0 955e e63d d3ba 7a3d
00000320: 8b21 a13d e9a7 353d 404d d9bc 2917 3eba
00000330: c9ef 9cbc f207 8bbd f9a2 e8bb 8022 3cbe
00000340: 38a2 abbd cd38 b13d 8ce7 afbd 4994 20bd
00000350: ab3b bf3d 54f1 d83d 1591 d53d c0f1 503e
00000360: 434c 0180 1521 0000 8c99 0000 c2c5 0000
00000370: 25e6 0080 430c 0000 5248 0000 7518 0000
00000380: ef3d 0000 f847 0080 abc2 0000 8e31 0000
00000390: ee1d 0180 c01b 0100 ff18 0280 0066 0100
000003a0: 6a1d 0100 977c 0180 d87a 0000 933b 0000
000003b0: d27c 0080 8f9b 0080 b5f2 0000 2d39 0100
000003c0: 4317 0080 53aa 0000 23a6 0080 df29 0280
000003d0: 9417 0000 dc70 0080 d5c0 0080 ae55 0000
000003e0: 439e 0000 632d 0180 1760 0080 9671 0000
000003f0: b99d 0080 4485 0080 0ebc 0000 6064 0000
-0.013289287 0.11312806 0.21923934 -0.10211847 0.011142513 0.1175972 -0.31768093 -0.18843417
-0.08897755 0.00030615935 0.0015017124 0.00212632 -0.0002648479 0.0007948379 0.0014951352 -0.00014613243
-0.00041833968 -0.0003539945 0.011985998 0.11760591 0.18868278 -0.043690745 0.032769583 0.09513695
-0.087186486 -0.03227707 0.010075577 -1.73212e-40 6.7596e-41 -1.57306e-40 -1.0962e-40 -4.7933e-41
1.02917e-40 5.408e-42 -5.6584e-41 -6.8697e-41 -0.020690108 0.095669836 0.13590427 -0.07045937
0.03956713 0.07470047 -0.20362672 -0.12753364 -0.09358937 -5.936e-41 1.20199e-40 -4.1988138e-32
2.623e-42 -6.7803e-41 -7.87762e-40 -4.8153e-41 -9.372e-42 -3.5614e-41 -0.0068319165 0.026818827
0.01767759 -0.012658828 0.022128891 0.011358547 -0.008783596 0.019022275 0.01626579 0.0117150815
0.09790678 0.16198152 -0.03974923 0.028175155 0.08523715 -0.1382182 -0.08280731 -0.040950947
-2.8212e-41 -2.7527e-41 5.2441e-41 -6.7625e-41 1.8445e-41 -5.9681e-41 -3.2003e-41 -4.4514e-41
-7.1407e-41 1.07621e-40 1.62368e-40 1.28081e-40 -4.1812e-41 -1.31803e-40 -6.5986e-41 1.49434e-40
1.09789e-40 -8.9893e-41 4.7815e-41 3.2685e-41 -1.0779e-41 2.3615e-41 8.286e-42 -2.4404e-41
-7.4134e-41 -5.0751e-41 2.7833e-41 -1.1118e-41 -1.61441e-40 -1.5022e-41 -1.555e-40 -1.58382e-40
7.228e-41 9.5664e-41 -7.4587e-41 1.1004e-41 1.1628e-41 -6.3326e-41 -3.2797e-41 -4.4962e-41
-6.0065e-41 -3.021e-41 -5.7774e-41 4.5413e-41 8.734e-42 7.9077e-41 -9.9946e-41 -1.4382e-41
-1.08117e-40 1.46168e-40 8.8412e-41 -1.18288e-40 9.0602e-41 1.81055e-40 1.838e-40 1.69079e-40
1.60271e-40 1.81601e-40 1.64458e-40 1.80078e-40 1.85162e-40 -5.6848e-41 1.49793e-40 -6.8254e-41
2.777e-41 7.5962e-41 -8.832e-42 6.62e-41 5.8033e-41 5.2029e-41 4.8912e-41 6.0071e-41
-0.24908856 -0.14077884 0.066634074 -0.1450038 -0.07099184 0.103132054 0.072446644 0.10890646
0.25035477 -0.009354115 -0.009270737 -0.008672766 -0.0075365882 -0.007965901 -0.007848357 -0.0067942166
-0.007481987 -0.007459209 -0.19258659 -0.106422566 0.10815828 -0.12703569 -0.083943754 0.08352273
0.058824193 0.059567377 0.1928215 -4.3568e-41 -4.0872e-41 2.00042e-40 1.03437e-40 1.77315e-40
1.74899e-40 -4.9732e-41 1.25643e-40 -9.0629e-41 -0.14900269 -0.07526275 0.030301563 -0.057344828
-0.0010979025 0.08038233 0.08467574 0.10654935 0.16813983 -4.521375e-09 -2.3123983e-09 -1.3619109e-09
-2.9908527e-09 -1.8211181e-09 -1.2241441e-09 -2.135967e-09 -1.4767231e-09 -1.0619333e-09 0.11248509 0.061213326
0.07867726 0.044349585 -0.026526093 -0.0007251376 -0.019157307 -0.06788625 -0.007099506 -0.18372536
-0.0838055 0.08653412 -0.08589086 -0.039203916 0.09337553 0.10592905 0.10428063 0.2040472
-1.19193e-40 1.1868e-41 5.5082e-41 7.0942e-41 -8.256e-41 4.399e-42 2.5944e-41 8.774e-42
2.2218e-41 -2.5818e-41 6.9834e-41 1.7777e-41 -1.02572e-40 1.0179e-40 -1.92638e-40 1.28426e-40
1.02387e-40 -1.3653e-40 4.4068e-41 2.1371e-41 -4.4777e-41 -5.5804e-41 8.7067e-41 1.12346e-40
-8.345e-42 6.1101e-41 -5.9599e-41 -1.98692e-40 8.458e-42 -4.0486e-41 -6.9175e-41 3.0736e-41
5.6774e-41 -1.08117e-40 -3.447e-41 4.0747e-41 -5.658e-41 -4.7807e-41 6.7461e-41 3.6008e-41

e_conv4.0.bias f4 [8]
00000000: d87d 863d 21cc 0000 5ae6 a43d 77e6 0580
00000010: 8bfe 453d 4143 613d 36e3 26be 9894 1e3c
0.065669715 7.3228e-41 0.080517486 -5.41853e-40 0.048338454 0.05499578 -0.16297612 0.009678982

e_conv5.0.weight f4 [8, 16, 1, 1]
00000000: 3e39 3bbd 7466 10bc 7a42 a0ba 5d31 0080
00000010: a1ca 6bba 0ee8 ffac 430f e53c e7f9 4cbc
00000020: d0ad 3e3e 3a19 0180 5734 dd3e 6502 0000
00000030: e8cc f13d ea16 b3bd ac0f 53bb 6598 753e
00000040: 4240 23bd 4a83 06bc b62e cbbb f11a 0000
00000050: b68e 9b3c 99ad 8aa9 65a9 243d c49a 38bc
00000060: 2cb3 133e 22e0 0000 29a0 a33e c6e9 0000
00000070: af25 0b3e 3ca0 96bd e5c8 813c 2552 3d3e
00000080: e8f0 0080 0131 0180 4187 0180 8de6 0100
00000090: 7c8d 0000 5db9 0080 e90c 0100 cf9c 0080
000000a0: 92bf 0080 93ea 0000 7865 0100 e56d 0100
000000b0: b70a 0080 311d 0100 d1b8 0080 2eea 0000
000000c0: d369 0180 694f 0080 a7c8 0100 0dfa 0100
000000d0: f257 0100 dbcf 0080 ad86 0100 94c7 0180
000000e0: d75c 0080 ae83 0080 6291 0000 164f 0000
000000f0: 921c 0100 0bb1 0000 7726 0180 d020 0080
00000100: 0834 62ba 6a44 0100 b0ae e2b9 f9e9 0000
00000110: 4973 19ba bb9f 0180 637b 70af 8e0f 9cb9
00000120: 5b3e 5c1c 639e 0000 83ed 14b9 045c 0080
00000130: 5c55 ceb8 6e42 3692 1072 1a38 998c 5715
00000140: dc65 753d f984 c5bb 483b d5ba 85b9 0000
00000150: 3114 823d b11c b993 8bf7 a43d f09e 1f3d
00000160: dbab 6a3d 9998 0180 2c3e ecbe 8139 0000
00000170: 3347 b93e 11d2 42bc a9a7 a13e 4dea 203c
00000180: 7f29 05bd f439 07bc 66f8 a83b eeb0 0180
00000190: fb2f af3c 925b d4aa 40cc 5a3d 0734 c2bb
000001a0: 2d27 2e3e b601 0100 b348 6d3e 5b99 0000
000001b0: 6d29 2c3e 51ab 91bd d148 293d 16f4 323e
000001c0: eba3 ccbc 9574 f1bb fc61 9ebb d53c 0180
000001d0: 0a24 e13c bc8f a1ad 9a10 6f3c 3081 753a
000001e0: bc1d 4b3e 45cd 0080 b1d5 253f dab6 0100
000001f0: 8ea3 a13d 9871 d3bd c131 b5bc cf98 a13e
-0.045708887 -0.008813489 -0.0012226843 -1.7708e-41 -0.00089947326 -7.273299e-12 0.027961379 -0.012510753
0.18620992 -1.00885e-40 0.43203995 8.59e-43 0.11806661 -0.08744605 -0.0032205386 0.23983915
-0.039856203 -0.008210013 -0.0062006367 9.665e-42 0.018988948 -6.1585455e-14 0.04020061 -0.011267368
0.14423817 8.0404e-41 0.3195813 8.3862e-41 0.13588594 -0.07354781 0.015842864 0.18488367
-8.6421e-41 -1.09415e-40 -1.40355e-40 1.74542e-40 5.0755e-41 -6.6496e-41 9.6467e-41 -5.6252e-41
-6.8722e-41 8.415e-41 1.28236e-40 1.31258e-40 -3.844e-42 1.02307e-40 -6.63e-41 8.4008e-41
-1.29798e-40 -2.8487e-41 1.63816e-40 1.81537e-40 1.23384e-40 -7.4564e-41 1.40148e-40 -1.6343e-40
-3.3305e-41 -4.7238e-41 5.2154e-41 2.837e-41 1.02085e-40 6.3511e-41 -1.05634e-40 -1.1771e-41
-0.0008628969 1.16378e-40 -0.0004323623 8.3934e-41 -0.00058536656 -1.49136e-40 -2.1871709e-10 -0.00029766228
7.2872486e-22 5.6818e-41 -0.0001420286 -3.3009e-41 -9.838745e-05 -5.7510955e-28 3.682269e-05 4.3529816e-26
0.059911594 -0.0060278145 -0.0016268278 6.6552e-41 0.063515075 -4.6728857e-27 0.080550276 0.038969934
0.0572928 -1.46577e-40 -0.46141183 2.0629e-41 0.36187133 -0.011890904 0.31573227 0.009821487
-0.032510277 -0.008253563 0.0051565645 -1.55306e-40 0.021385184 -3.7722305e-13 0.053417444 -0.0059266123
0.17007132 9.2449e-41 0.23172264 5.5014e-41 0.16812678 -0.07112754 0.04132921 0.17475924
-0.024980506 -0.007368634 -0.004833458 -1.13658e-40 0.027483005 -1.8367412e-11 0.01459136 0.0009365259
0.19835562 -7.3637e-41 0.6477919 1.5743e-40 0.07892524 -0.10324401 -0.022118451 0.31561896

e_conv5.0.bias f4 [8]
00000000: 875d e73a f4cb 653d 2c45 0900 c111 0080
00000010: f366 83ba e5de 823d 1772 653d d937 febc
0.0017651775 0.056102708 8.51334e-40 -6.369e-42 -0.0010025188 0.0639017 0.056017008 -0.03103249

e_conv5.2.weight f4 [8, 8, 3, 3]
00000000: 5730 07be 8cdf 1bbc 3a54 3bbc c045 cdbd
00000010: 1ed0 8d3c 835d 5f3d 45d8 32bd aa0e cc3d
00000020: d0dd ca3d 8ec9 53bc fe74 163d 3f10 563d
00000030: 2de2 16bd e443 953c d220 483d 53c8 bd3c
00000040: 4c1a af3d 03d5 af3d 4e0d 0100 ff36 0100
00000050: 2336 0000 5d02 0280 d337 0100 9af0 0080
00000060: 200c 0180 48bb 0100 b504 0080 c9e9 0000
00000070: fa15 0100 dc65 0180 9e34 0100 aee1 0000
00000080: 165a 0180 4247 0100 9200 0080 385b 0000
00000090: f477 73b1 096d 8eb2 b523 99b2 5f40 65b3
000000a0: d530 8eb4 6eb7 a1b4 cba3 09b3 182c 3eb4
000000b0: 019a 89b4 b863 ef3e b30f 623e 1fa2 8b3e
000000c0: 1a40 7b3e 12c6 79bd 1086 aaba 9461 783e
000000d0: 1e43 a6bd 4e86 37bd abfd a53d 6322 8b3d
000000e0: cf05 d23d 66e3 6f3b b18a c83b 6ac9 283d
000000f0: c6fc 803d 5520 803d 9b4c 903d 31d7 bbbe
00000100: c577 c3bd 22b5 e5bd 99cb 73be 1e9f 8abb
00000110: 838d 5a3d 76bd 26be 776b 003e 72d3 163e
00000120: 0488 40bc 7d13 e23c 0fe7 903d 94c4 aa3c
00000130: 88e8 f73c e34f a13d afc4 823d 8138 843d
00000140: d366 173e 16e1 8ebb 2d21 b93c 54c1 893d
00000150: 03c3 6c3c 33ea 943c eaa3 613d 365d 663d
00000160: 33e9 4c3d 6775 cc3d 7322 0180 211b 0100
00000170: 2d3f 0180 7442 0100 7f2a 0080 444e 0100
00000180: dfc6 0000 0526 0180 23e7 0000 44a4 0080
00000190: 7cf6 0000 8a3d 0000 1309 0000 4e1f 0100
000001a0: 8b3e 0000 d389 0180 c339 0000 0e08 0180
000001b0: b50e e8b6 b4e2 81b6 545b 1036 8c96 dab6
000001c0: 1df4 b4b6 2b19 78b5 6153 b7b6 729b ccb6
000001d0: d7cf 4db6 1edb 423d 60c9 b73c 8385 8f3d
000001e0: 8bbc 893c ddec e7bc d258 a8bc 9edd 683d
000001f0: 5bfe d8bc a3c2 8abd 8dbc 653c 009b d03c
00000200: 05b8 a83d 7c28 ad3c b2fc 283b ccbd 3b3d
00000210: 913d 813d 06ee 043d f7f0 a93d 7ee6 6dbd
00000220: 4de5 383c e2cc 8a3d f2a2 1f3c 4b28 1e3d
00000230: eff5 d53d 867a 853d 972a d93d 7466 713e
00000240: 4f00 093d 9a3c b8ba 93bd 05bc 9960 c13c
00000250: 9c31 b93b ac6b ee3b c54e 743c 113e 9c3b
00000260: 74b9 d93b a825 df3c 0b22 6cbb 22a5 10bc
00000270: a202 9a3c 61e9 82b8 4e7a 8c3a 03a5 8a3c
00000280: 536f 563b 5573 6c3b 493c 0100 e680 0000
00000290: 9066 0080 44a8 0000 285f 0080 93a2 0100
000002a0: 57fe 0080 4dd7 0180 d821 0000 e1c4 0100
000002b0: 252f 0180 8cad 0000 b288 0180 a2cb 0180
000002c0: 02a8 0180 ab8b 0080 08fa 0180 4b18 0080
000002d0: 2ca0 0811 3523 0292 df72 ee11 47fd b391
000002e0: 713f 5d12 4d85 ca10 6063 1412 46d0 6692
000002f0: 3ffd ab91 6b9a 0a3d 3131 9d3c 1ee3 c63c
00000300: 85d8 d43c 8afa 88bb acf6 a3ba 81b2 773d
00000310: 2d3e ac3c 5ae0 7f3c a133 fb3c 5dca 5bba
00000320: ab22 a1bb cfa3 b53c a984 d3b9 f238 433a
00000330: a739 de3c 13f9 fb3b 8890 e43b 0bfd 113d
00000340: 97b9 90bb e481 5bbc 1238 d43c 06b1 113c
00000350: af82 2c3c 53d8 ed3b 061e e53a 6cab a83b
00000360: 7bcc 36bc 1aa6 c83c 3246 a33d b37e db3c
00000370: 10cc e03c 5edd 983d c63a 913d 1f3e 923d
00000380: ead6 133e 2611 76bb c046 bc3c 017b 923d
00000390: 65d6 a53c 3cae af3c ac4d 5b3d 2f84 813d
000003a0: 653b 4d3d 1bf3 cf3d 08c7 0080 be10 0200
000003b0: f7f9 0000 aae3 0080 c4c3 0100 c7eb 0080
000003c0: f622 0080 b06b 0180 8d33 0180 b3b3 0180
000003d0: 3f13 0100 4a30 0080 9e92 0000 247b 0180
000003e0: 13ae 0000 28ae 0100 95a4 0000 0a12 0080
000003f0: bc7d 32b7 07b4 dab6 ad6a 3636 ce19 22b7
-0.13202034 -0.009513747 -0.011433655 -0.100230694 0.017311152 0.05453254 -0.043663282 0.099637344
0.099055886 -0.012926472 0.036732666 0.052261587 -0.03683679 0.01822085 0.048859425 0.023166811
0.085499376 0.08585551 9.6608e-41 1.11564e-40 1.942e-41 -1.84519e-40 1.11861e-40 -8.6312e-41
-9.6185e-41 1.5902e-40 -1.689e-42 8.3866e-41 9.9719e-41 -1.28376e-40 1.10711e-40 8.0959e-41
-1.24152e-40 1.17398e-40 -2.05e-43 3.2723e-41 -3.542934e-09 -1.658056e-08 -1.7827782e-08 -5.3376763e-08
-2.648509e-07 -3.012205e-07 -3.2046767e-08 -1.771117e-07 -2.563029e-07 0.46755767 0.22076301 0.27272126
0.24536172 -0.06097991 -0.0013009924 0.24255973 -0.0811827 -0.044805817 0.08105024 0.06793668
0.10255014 0.0036604046 0.006120049 0.04120771 0.06298213 0.06256167 0.07045861 -0.36687616
-0.095443286 -0.11216189 -0.23808135 -0.004230394 0.053357612 -0.16283211 0.12540995 0.14729097
-0.011751179 0.027597183 0.07075321 0.020845689 0.030262247 0.07876565 0.06385171 0.0645609
0.14785318 -0.0043603284 0.022598827 0.067263275 0.014450791 0.018178081 0.05508796 0.056241237
0.050027084 0.0998333 -1.04194e-40 1.01568e-40 -1.14499e-40 1.15674e-40 -1.5245e-41 1.19912e-40
7.1342e-41 -1.05474e-40 8.2916e-41 -5.8927e-41 8.8422e-41 2.2076e-41 3.255e-42 1.03066e-40
2.2436e-41 -1.41278e-40 2.0721e-41 -9.4725e-41 -6.915851e-06 -3.8708913e-06 2.1510832e-06 -6.5144322e-06
-5.3928366e-06 -9.2423824e-07 -5.4635316e-06 -6.09777e-06 -3.066836e-06 0.047572248 0.02243489 0.07007887
0.016813537 -0.028311187 -0.020550165 0.056851976 -0.026488474 -0.06775405 0.014022005 0.025464535
0.08238224 0.021137469 0.0025785384 0.0458353 0.06310571 0.03245356 0.082979135 -0.058081143
0.011285138 0.067773595 0.009743439 0.038612645 0.10447299 0.0651751 0.106038265 0.23574239
0.03344756 -0.0014056147 -0.008162874 0.023605632 0.005651666 0.007276019 0.014911358 0.004768141
0.006644422 0.027239636 -0.0036031033 -0.008828433 0.018800084 -6.242353e-05 0.0010717602 0.016924387
0.0032720163 0.0036079485 1.13462e-40 4.624e-41 -3.6792e-41 6.0362e-41 -3.4136e-41 1.50156e-40
-9.124e-41 -1.69071e-40 1.2141e-41 1.62462e-40 -1.08748e-40 6.2257e-41 -1.40873e-40 -1.64885e-40
-1.52105e-40 -5.0103e-41 -1.8153e-40 -8.715e-42 1.0777865e-28 -4.1064163e-28 3.7620574e-28 -2.8397315e-28
6.98135e-28 7.9880334e-29 4.6823055e-28 -7.283192e-28 -2.7135118e-28 0.03383867 0.019188495 0.02427822
0.02598215 -0.004180257 -0.0012509427 0.06047297 0.021025741 0.015617454 0.030664267 -0.00083843415
-0.004917463 0.022172837 -0.00040343896 0.0007447145 0.0271271 0.007689604 0.0069752373 0.03564171
-0.0044166553 -0.013397668 0.025905643 0.008892303 0.010529204 0.007258454 0.0017480261 0.005147388
-0.01115715 0.024493266 0.07972373 0.026793813 0.027441055 0.074640974 0.07091288 0.07140755
0.14437452 -0.0037546842 0.022982955 0.071523674 0.020243833 0.021445386 0.05354087 0.0632404
0.05010547 0.101537906 -7.1399e-41 1.89677e-40 8.967e-41 -8.167e-41 1.62063e-40 -8.4581e-41
-1.2542e-41 -1.30466e-40 -1.10328e-40 -1.563e-40 9.874e-41 -1.7323e-41 5.2596e-41 -1.3601e-40
6.2446e-41 1.54311e-40 5.9041e-41 -6.471e-42 -1.0638902e-05 -6.517864e-06 2.7182207e-06 -9.661961e-06

e_conv5.2.bias f4 [8]
00000000: 25c1 8b3d 4f27 433d 6060 21bd 90d8 583d
00000010: f704 a03d 9e68 843d 0762 12bd 7e6b fdbd
0.06823949 0.04764491 -0.03939855 0.052940905 0.07813447 0.06465267 -0.035738017 -0.12374018

e_conv5.4.weight f4 [16, 8, 1, 1]
00000000: 52ed 353d 64e6 033e 4280 433b 2ff4 ed3d
00000010: b5c1 063e 6ca6 043e 4667 cc3d e014 0f3b
00000020: 1f0e c03c 58b5 003e 9d34 bfba c702 fd3d
00000030: 3037 ff3d e3fc ed3d 15c5 d53d 78c9 1b3c
00000040: 2439 ebbc 2de5 c33c 66fa 993c a0d6 d63c
00000050: e98a 9c3c d638 c23c 11e2 133d 9bea 3d3e
00000060: f8ce 0000 358d 0000 80ae 0100 9328 0080
00000070: 49c7 0080 638c 0080 d451 0080 b5cd 0080
00000080: 7cd7 10bd 46b8 843d bccc 35bc 34fb 143d
00000090: 54fa 8f3d a808 833d 6f43 853c 0c12 debd
000000a0: 69da 24bc bbb0 62bb 496d c73c 4677 a4ba
000000b0: 8c40 01ba e82b 74ba 5599 25bc 3e52 f9bc
000000c0: 0f10 50bc 13ed d83d dab9 91bb 7712 e53d
000000d0: 07f9 f43d 184a d73d 4511 a03d 28cf 14bd
000000e0: 415d f53e 1d45 9b3e b6d6 5e3d 3f6c 943e
000000f0: 567b 933e 0eb4 923e da9a bc3e 2d46 413e
00000100: a404 50bd c824 46bc f3b6 3fbd 9497 92bc
00000110: 4bd1 15bc b469 21bc 1993 74bd a94b 17bd
00000120: 7e2f 84a9 284b 5099 ec27 0280 c21a cb9a
00000130: 74fd 809c 744b 189c 4a61 8b8f 4755 0000
00000140: 4293 f9be 2a1f 1dbd 6b5a 6c3d 3174 f9bc
00000150: 7630 afbc 2103 01bd a7a8 fbbd 54e9 0a3e
00000160: e104 6aae d403 9aa7 8d18 0180 fb32 7ba8
00000170: 241d 9fa9 a75e 32a9 d19c c29f 278b 0000
00000180: 7023 e43d ac32 933d de21 c93b ce7b 923d
00000190: f82c 883d 0e68 873d 5d0e 453e cb83 333e
000001a0: 83a4 31bd 5abe b43d 1639 21bc 9000 cd3d
000001b0: 952d e73d 8220 c83d d832 e33c a5f4 eebd
000001c0: f989 003f 9f51 1e3e 32cc 6f3d 8170 0d3e
000001d0: e844 eb3d baed f73d adc4 b03e e50d 3d3e
000001e0: ba93 0c3d d623 b83d fc90 e4ba cc9c ec3d
000001f0: 35c7 023e a167 063e 4b56 df3d 71a1 303c
0.04441578 0.12880856 0.0029831086 0.1161884 0.13159831 0.1295411 0.09980635 0.002183251
0.023444233 0.12569177 -0.0014587824 0.12354045 0.12461698 0.116205 0.10437981 0.009508483
-0.02871377 0.02391299 0.018796157 0.026225388 0.019109206 0.023708742 0.036104266 0.18546526
7.4246e-41 5.0656e-41 1.54434e-40 -1.4555e-41 -7.149e-41 -5.0361e-41 -2.9354e-41 -7.3794e-41
-0.035361752 0.0648046 -0.011096176 0.03637238 0.07030168 0.063981354 0.016267506 -0.10843286
-0.010061839 -0.0034590203 0.024344103 -0.0012547753 -0.00049305777 -0.0009314404 -0.010107358 -0.030434724
-0.012699141 0.10592093 -0.004447204 0.111851625 0.11961561 0.10512179 0.07815794 -0.036330372
0.4792271 0.30326167 0.054403983 0.28988835 0.28805035 0.28652996 0.36836892 0.18874426
-0.050785676 -0.01209373 -0.046805333 -0.017894544 -0.009144138 -0.009851862 -0.059710596 -0.03693739
-5.870216e-14 -1.0768526e-23 -1.97992e-40 -8.400206e-23 -8.535846e-22 -5.03901e-22 -1.3743933e-29 3.0592e-41
-0.4874516 -0.0383598 0.057703417 -0.030450912 -0.021385413 -0.031497125 -0.12288027 0.1356557
-5.3209773e-11 -4.2747737e-15 -1.00643e-40 -1.3944354e-14 -7.0660735e-14 -3.9606037e-14 -8.242163e-20 4.9918e-41
0.11139572 0.07187399 0.0061380705 0.0715252 0.06649202 0.06611644 0.1924376 0.17530744
-0.04336978 0.08825369 -0.0098402705 0.10009873 0.11287991 0.097718254 0.027734205 -0.11667756
0.5021053 0.15460823 0.058544345 0.13812448 0.11487752 0.121058896 0.34525052 0.18462332
0.03432057 0.0899121 -0.0017438228 0.11553344 0.12771304 0.13125469 0.10905131 0.010780678

e_conv5.4.bias f4 [16]
00000000: 2992 123e ebc8 a93d 8c7f 91be bd17 d088
00000010: 65d1 873e 94c1 9a3c b604 ff3d b017 b1bd
00000020: b95b 0dbe 1e27 d09c 09bd a3be c6dc cdad
00000030: 63cd dcbd 9803 873e 99f7 ebbb 22ec 2c3e
0.14313568 0.08290275 -0.28417623 -1.25241255e-33 0.26526943 0.018891133 0.124520704 -0.08647096
-0.1380452 -1.3774397e-21 -0.3198016 -2.3403845e-11 -0.10781362 0.2636993 -0.007201147 0.16886953

e_conv5_out.0.weight f4 [8, 16, 1, 1]
00000000: b341 33bd 8ada ba3d 2025 9b3d a774 0180
00000010: 3026 d03c 6367 bfbb 46b6 133d 165b 893d
00000020: 7a7d f63d 3cb3 0080 1425 bd3e 4f27 0180
00000030: a084 403e 5255 813c 1953 713c 2afd 7c3d
00000040: 8b9e 84bd 343f 733d 36af b2bd 62c5 0080
00000050: 264b 663d f595 a3ba b9f0 863d ba9d ddbc
00000060: cdff 953d 0bc4 0080 b2ca 293d 276e 0180
00000070: a744 423d 1ba5 ec3d 8c3b 9a3c 601c b23d
00000080: d27c 523b 3090 eabc 1370 8b3d 317a 0180
00000090: 97e5 a73d 999e 2d3b 77d1 8ebc 312e 2ebe
000000a0: b198 a93d 4321 0180 d379 29bd e5b1 0080
000000b0: 33e7 d53d 0a54 c53d d58c 44bc 2999 103c
000000c0: fa93 88bd e6d4 8b3d a4b4 93bc c77d 0180
000000d0: cfc6 943d fa23 69bb 1d87 673d cd61 b33c
000000e0: e7ea 7c3d 62e9 0000 e257 cc3d 0251 0180
000000f0: 9733 e93d 9c9f 7f3d ec25 a33c d194 b43d
00000100: 3bdd 5dbd a551 b33d 4426 5ebd be2f 0100
00000110: d6b4 2b3d 147c d4bb 83c3 d83d 3353 6e3d
00000120: bd5d 033e fac6 0000 183d 373e b415 0100
00000130: e76a ab3d 7801 d33d c453 533c bd16 ef3d
00000140: 20c7 0080 1961 0180 2123 0000 913c 0180
00000150: e7e8 0000 3f0b 0000 ea2e 0180 fe6f 0080
00000160: be9f 0080 a23c 0000 68af 0080 3dc4 0000
00000170: d214 0180 4b80 0000 5a8d 0100 383d 0000
00000180: db66 85bd 2c97 113d 8fe8 0abd 9e9d 0180
00000190: 3fd1 613d 2681 2f3a 58d5 333d 227c 95bc
000001a0: 48d1 613d 2c1f 0000 d5f8 003d a011 0200
000001b0: d4c7 a23d b1e8 563d f70c 923c d325 4f3d
000001c0: f90b 96bd eae5 153d 8cb1 17bc 09a4 0100
000001d0: 9594 7a3d c9fb e03a 8ab0 873d 47c8 9bbd
000001e0: c598 863d dbf6 0000 0f77 5f3d 19ff 0180
000001f0: ee54 8c3c f996 c43d 9ced 1bbd 1bad 983d
-0.043763828 0.09123714 0.075754404 -1.33682e-40 0.025408834 -0.005841182 0.0360625 0.067068264
0.120356515 -6.4297e-41 0.3694235 -1.05937e-40 0.18800592 0.015787754 0.014729285 0.061764874
-0.06475552 0.059386447 -0.08724825 -7.0808e-41 0.05622401 -0.0012480604 0.06588883 -0.027052749
0.07324181 -7.0327e-41 0.04145307 -1.31351e-40 0.047428753 0.11554929 0.018827222 0.08696818
0.0032117856 -0.028633207 0.06808486 -1.3567e-40 0.08198088 0.0026492237 -0.017433865 -0.17009808
0.08281077 -1.03768e-40 -0.041375946 -6.3817e-41 0.104444884 0.0963517 -0.011996468 0.008825579
-0.06668849 0.068277165 -0.018030472 -1.36956e-40 0.07264482 -0.0035574422 0.05652534 0.021897221
0.061747458 8.3722e-41 0.099777 -1.20896e-40 0.11386793 0.062408075 0.019915543 0.08817447
-0.05416606 0.08755807 -0.05423571 1.08962e-40 0.041920505 -0.006484518 0.10584166 0.058184814
0.12828727 7.138e-41 0.17894399 9.9621e-41 0.083699994 0.103030145 0.012898389 0.11674259
-7.1433e-41 -1.26668e-40 1.2602e-41 -1.13563e-40 8.355e-41 4.034e-42 -1.08665e-40 -4.0175e-41
-5.7305e-41 2.1751e-41 -6.2924e-41 7.0397e-41 -9.9304e-41 4.6023e-41 1.42543e-40 2.1961e-41
-0.06513759 0.03554456 -0.03391319 -1.48378e-40 0.055131193 0.0006694965 0.043904632 -0.018247668
0.055131227 1.1182e-41 0.031487305 1.89994e-40 0.079482704 0.052468006 0.017828448 0.05057318
-0.07326502 0.036596216 -0.009258639 1.5068e-40 0.061176855 0.0017164882 0.06625469 -0.07606559
0.06572107 8.8555e-41 0.054556902 -1.83347e-40 0.017130341 0.09599108 -0.0380684 0.07454892

e_conv5_out.0.bias f4 [8]
00000000: e6e9 f4bd cf6a 113e abd5 273e 9f82 9f3d
00000010: 26d8 763c 68bd 0b80 5206 273e ba49 593e
-0.11958675 0.142009 0.16390102 0.07788586 0.015066182 -1.078137e-39 0.16311005 0.2121953

e_conv5_out.2.weight f4 [8, 8, 3, 3]
00000000: cfda 96bb c3ea 8dbb db60 9dbb afe5 76bb
00000010: b669 66bb 7e90 86bb d7a3 9ebb 96f1 98bb
00000020: 6601 b5bb 27b0 29bb 1ca4 c7ba 0a53 1abb
00000030: c71f d2ba 2d7c d7b9 6d63 aeba 1126 45bb
00000040: bb50 feba b4f4 34bb 3434 123a 328a 7b3a
00000050: 8522 ad3a 4741 083b 1d2d 0c3b a383 df3a
00000060: 1bf3 c03a 1635 513a 282e 053a 7e57 81bb
00000070: abf8 5ebb 6754 8abb d74c 51bb 8c00 2cbb
00000080: 52af 6bbb 5898 8cbb cd8a 80bb 45c0 a2bb
00000090: 87b2 88bb 5013 4ebb 6d97 90bb 92a3 5cbb
000000a0: c9bf 0ebb d02b 5ebb 5545 a3bb 1eaf 7bbb
000000b0: a27a a6bb dc69 0180 9967 0080 268b 0000
000000c0: 5c3e 0080 cd39 0180 55fe 0000 39b3 0100
000000d0: da22 0000 ba7a 0080 0af9 42bb 73f9 1dbb
000000e0: c6e6 3fbb b0a2 07bb a57e c1ba 2eae 12bb
000000f0: 41fa 4cbb 0a0e 38bb 0df7 69bb 6702 9f3a
00000100: f065 063b a252 053b cdcd 083b 2683 483b
00000110: 5413 3b3b 71b8 813a 1710 f33a d9db 023b
00000120: 4822 693e 1750 f63d 4335 3c3e ea70 143e
00000130: 1a13 1dbc 1730 8d3d 6518 4a3e 7ec4 743d
00000140: 7c02 e23d 918d d4bc 1d51 e83c c3a8 38bd
00000150: 4a52 d33b 6b95 883d ac89 6c3d f2f0 babc
00000160: 2d82 6d3d 2a34 0d3d 3841 d4bd 83a3 7cba
00000170: 280b 48bd 5c42 133c df41 c33d 4352 f83c
00000180: 9d59 19bd 6f70 f53c ce5d bf3c 3aef c83c
00000190: 0b6b 0e3d 9bd4 213c 89d2 623d f9b0 ab3d
000001a0: 8a91 203d 3fe3 233d ecc3 953d d246 cb3b
000001b0: ef08 3b3d 0fee 9a3d e37d 3b3d 202d 213d
000001c0: cd93 bc3d 76e8 8d3d 5770 ac3c 4871 673d
000001d0: d0c4 ba3d 7d4e 0080 630b 0180 52c0 0180
000001e0: 07d7 0000 a892 0180 b88d 0180 5214 0000
000001f0: 143a 0080 8d7f 0000 d037 08bd 4b9b 173d
00000200: ad63 0abc 1375 133c 62a5 843d fe35 393d
00000210: 6eb3 793c c190 023d cecb 363b 7f45 24bd
00000220: d08b 3d3d 6fc0 13bd aa7c 723c a2b5 d83d
00000230: 2635 1d3d 61a9 6ebd b223 c83c e6c4 533c
00000240: 27a4 0080 af98 0080 d1a0 0080 04bf 0080
00000250: fe85 0080 f1c0 0080 3f32 0080 a6b4 0080
00000260: fb60 0080 ab1f 0080 677b 0080 d540 0080
00000270: 247a 0080 30bf 0080 cc52 0080 bf11 0000
00000280: 1946 0080 1a0c 0080 2fa0 0080 687c 0080
00000290: f960 0000 f566 0080 88b7 0080 f2a3 0000
000002a0: 9941 0000 1f93 0080 a93f 0080 6208 0080
000002b0: 76a9 0000 db5f 0000 57a5 0000 4abc 0000
000002c0: 4cb2 0000 3b9a 0080 8226 0000 1ba0 0080
000002d0: 9239 0000 f70d 0000 2118 0000 0129 0000
000002e0: f013 0000 7d38 0000 4745 0000 4449 0000
000002f0: 0a47 0000 78fc 0180 8f7b 0100 53d8 0000
00000300: 2997 0100 68b1 0100 0c95 0000 a022 0280
00000310: aabd 0080 a80c 0200 3613 0000 908e 0080
00000320: ad6f 0080 6e5c 0080 a7bf 0080 2742 0080
00000330: 5a54 0000 cd1f 0080 370a 0000 944e 0080
00000340: 5650 0080 ac16 0000 1c43 0000 1d96 0000
00000350: eedc 0080 79b5 0080 96ca 0000 bcc5 0000
00000360: 1ada 93bc 7d40 8fbd 9339 babd 24ff b83d
00000370: c7ee 0f3d febb 683d 1e2b f13c 3a1e 173d
00000380: fb86 463d 80b2 e1bc 1429 bfbc 883f 83bd
00000390: 125c 3e3c 87fe 843d 386f 3dbc 2485 30bd
000003a0: 8f1e fb3c fe93 4ebc 19b2 413d d9fd a63d
000003b0: ba1c a23d d4cd a53b c7cf 853d 7082 b6bc
000003c0: 414a 31bd 3cc1 5bbc 0765 b7bd 1d5b debc
000003d0: 3824 57bd c354 b5bd a87c 113d 8895 363d
000003e0: 99ef d4bb 7544 9dbc 33bf 983c 8340 2fbc
000003f0: 9b77 efbc 4716 73bd 93d5 bcbd 8cd7 4c3d
-0.0046037207 -0.0043309643 -0.004802806 -0.0037673523 -0.0035158223 -0.0041065803 -0.0048413086 -0.004667471
-0.0055238483 -0.0025892348 -0.0015231404 -0.002354803 -0.0016031199 -0.00041100514 -0.0013304778 -0.0030082504
-0.0019402722 -0.0027611675 0.0005577237 0.0009595483 0.001320914 0.0020790861 0.0021389194 0.0017052781
0.0014720889 0.00079806277 0.0005080425 -0.0039471975 -0.003402273 -0.0042214873 -0.003193667 -0.0026245443
-0.0035962653 -0.0042906217 -0.0039227963 -0.004966768 -0.0041716727 -0.0031444617 -0.0044125826 -0.0033666831
-0.0021781793 -0.0033900626 -0.0049826303 -0.0038403939 -0.005080537 -1.2981e-40 -3.7164e-41 4.9917e-41
-2.237e-41 -1.1257e-40 9.1237e-41 1.56128e-40 1.2502e-41 -4.4026e-41 -0.002975049 -0.0024104982
-0.0029281839 -0.0020696335 -0.0014762474 -0.0022381651 -0.0031277093 -0.002808454 -0.0035700232 0.0012131453
0.0020507537 0.0020343442 0.002087462 0.0030595749 0.0028545456 0.0009896887 0.0018544224 0.0019967465
0.22766984 0.12026995 0.18379693 0.14496198 -0.009587074 0.06893938 0.19735868 0.059757702
0.1103563 -0.02594641 0.02835899 -0.04508282 0.0064490186 0.06669124 0.05774848 -0.02281997
0.057985473 0.034473576 -0.10364002 -0.0009637402 -0.048838764 0.008987989 0.09534048 0.030312663
-0.037438978 0.02996084 0.02336016 0.024528135 0.034770053 0.009877349 0.055376563 0.08383364
0.039201297 0.04001164 0.0731276 0.006203511 0.045662817 0.07564937 0.04577435 0.039349675
0.09207878 0.06929104 0.021049662 0.056504518 0.0911957 -2.8156e-41 -9.592e-41 -1.60827e-40
7.7137e-41 -1.44446e-40 -1.42675e-40 7.29e-42 -2.0835e-41 4.5757e-41 -0.033256352 0.037013333
-0.008446616 0.009000081 0.06476857 0.045217507 0.015240533 0.03187633 0.0027892473 -0.04010534
0.046275914 -0.03607219 0.01480023 0.10581519 0.038380764 -0.058267 0.024431083 0.012925362
-5.8887e-41 -5.4773e-41 -5.769e-41 -6.8523e-41 -4.8067e-41 -6.9214e-41 -1.8025e-41 -6.4804e-41
-3.479e-41 -1.136e-41 -4.4268e-41 -2.3257e-41 -4.3816e-41 -6.8585e-41 -2.9702e-41 6.366e-42
-2.5146e-41 -4.341e-42 -5.7463e-41 -4.4629e-41 3.4787e-41 -3.6934e-41 -6.5839e-41 5.8812e-41
2.3532e-41 -5.2777e-41 -2.2837e-41 -3.007e-42 6.0791e-41 3.4386e-41 5.9313e-41 6.7545e-41
6.3961e-41 -5.5327e-41 1.3814e-41 -5.7435e-41 2.0652e-41 5.01e-42 8.656e-42 1.471e-41
7.152e-42 2.0264e-41 2.4852e-41 2.6283e-41 2.5484e-41 -1.82404e-40 1.3616e-40 7.7603e-41
1.46062e-40 1.55477e-40 5.3468e-41 -1.96092e-40 -6.8039e-41 1.88211e-40 6.892e-42 -5.1142e-41
-4.0062e-41 -3.3158e-41 -6.8752e-41 -2.3731e-41 3.026e-41 -1.1408e-41 3.664e-42 -2.8189e-41
-2.8819e-41 8.133e-42 2.4074e-41 5.385e-41 -7.9255e-41 -6.51e-41 7.2674e-41 7.0934e-41
-0.018048335 -0.06994722 -0.09093013 0.09033039 0.035139825 0.05681991 0.029439505 0.03689406
0.04846857 -0.027550936 -0.023335017 -0.06408602 0.011618631 0.0649386 -0.011562161 -0.043095723
0.03065422 -0.012608526 0.047288988 0.08153886 0.079156354 0.005059937 0.06533771 -0.022278994
-0.043283705 -0.01341277 -0.08954816 -0.027143056 -0.052524775 -0.08854058 0.035519272 0.044576198
-0.006498289 -0.019197682 0.018645858 -0.010696533 -0.029231837 -0.059347417 -0.092204235 0.05001025

e_conv5_out.2.bias f4 [8]
00000000: 9bf4 7aba 9951 0c3e 212b 77a0 d8c9 ae3c
00000010: 16cd 003e eb56 3b3d 7fa5 d1bc 0e4e bf3c
-0.0009573192 0.13703002 -2.0935984e-19 0.021336481 0.12578234 0.04573719 -0.02559161 0.023352649

e_conv5_out.4.weight f4 [3, 8, 1, 1]
00000000: e2ab 403b 1bf2 eb3d 03fe f2b5 aa7a 5f3e
00000010: d8b2 bc3d ac41 7b3e 2124 a83d ed0c 263e
00000020: eb2b 863b 96f2 ef3d 3689 b1b5 ccb2 663e
00000030: 40bf c63d 9175 813e 08e9 a83d 4184 2a3e
00000040: cad9 023b 18cf d33d 2beb c5b6 90b9 4d3e
00000050: e90b b43d 44c2 663e 2ec2 953d 8614 183e
0.0029399325 0.11520787 -1.8104332e-06 0.21824136 0.09213799 0.2453677 0.08210016 0.16215868
0.004094591 0.117161915 -1.3227461e-06 0.22529143 0.09704447 0.2528501 0.08247572 0.16652013
0.0019966238 0.103422344 -5.8984347e-06 0.20090318 0.08791334 0.22535044 0.073124275 0.14851579

e_conv5_out.4.bias f4 [3]
00000000: bfcb 153e 5235 143e e646 8f3e
0.14628504 0.14473465 0.2798378
